layer     filters    size              input                output
    0 conv     16  3 x 3 / 1   512 x 512 x   3   ->   512 x 512 x  16  0.226 BFLOPs
    1 max          2 x 2 / 2   512 x 512 x  16   ->   256 x 256 x  16
    2 conv     32  3 x 3 / 1   256 x 256 x  16   ->   256 x 256 x  32  0.604 BFLOPs
    3 max          2 x 2 / 2   256 x 256 x  32   ->   128 x 128 x  32
    4 conv     64  3 x 3 / 1   128 x 128 x  32   ->   128 x 128 x  64  0.604 BFLOPs
    5 max          2 x 2 / 2   128 x 128 x  64   ->    64 x  64 x  64
    6 conv     64  3 x 3 / 1    64 x  64 x  64   ->    64 x  64 x  64  0.302 BFLOPs
    7 max          2 x 2 / 2    64 x  64 x  64   ->    32 x  32 x  64
    8 conv     64  3 x 3 / 1    32 x  32 x  64   ->    32 x  32 x  64  0.075 BFLOPs
    9 max          2 x 2 / 1    32 x  32 x  64   ->    32 x  32 x  64
   10 conv     64  1 x 1 / 1    32 x  32 x  64   ->    32 x  32 x  64  0.008 BFLOPs
   11 conv     30  1 x 1 / 1    32 x  32 x  64   ->    32 x  32 x  30  0.004 BFLOPs
   12 yolo
Loading weights from 2024_140000.weights...Done!
